ae_state_dict.pt (torch, 69621 bytes, 15 tensors)

encoder.conv_0.weight f4 [8, 1, 2, 2]
0	0xbeb466de	-0.3523473
1	0x3e284c88	0.16435444
2	0x3f0c7a65	0.5487426
3	0x3f4b7af6	0.794845
4	0x3ee2a051	0.44262937
5	0x3f5cde3f	0.8627662
6	0x3d93c9d0	0.07216227
7	0x3e054313	0.13013868
8	0xbe1233a9	-0.1427752
9	0x3e122c6c	0.14274758
10	0xbe9b3cf4	-0.3031994
11	0xbed3e3ba	-0.4138468
12	0x3de4362a	0.111431435
13	0x3de8a996	0.11360471
14	0xbf0bcd1a	-0.54609835
15	0x3e23a29c	0.1598
16	0x3f18a89e	0.5963229
17	0x3ee8e0e4	0.45484078
18	0x3d864acc	0.06557235
19	0x3edeeaa8	0.43538404
20	0x3d4bbbbc	0.049739584
21	0xbc9352b7	-0.017983777
22	0x3f18a8b5	0.59632427
23	0x3d622b7c	0.05521725
24	0x3f0e6807	0.55627483
25	0xbe496ed7	-0.19671188
26	0x3ebfe355	0.37478128
27	0x3ea1b3bc	0.3158244
28	0x3ecd4c3f	0.40097234
29	0x3f039ed0	0.51414204
30	0xbb94d0f1	-0.0045415093
31	0xbebd4ca7	-0.36972544

encoder.conv_0.bias f4 [8]
0	0x3b11ca01	0.0022245648
1	0x3a106993	0.0005508896
2	0x3e9e7151	0.3094583
3	0x3eb6487d	0.3560218
4	0x3ac7d6e4	0.0015246538
5	0x3b7516fc	0.0037397733
6	0x3e059136	0.13043675
7	0x3e47f2ee	0.19526264

encoder.conv_1.weight f4 [16, 8, 2, 2]
0	0x3b58462a	0.0033000805
1	0x3da03b2d	0.07823787
2	0xbe2acb14	-0.1667903
3	0x3e69e327	0.22840558
4	0x3d2ef0e3	0.042710196
5	0x3dc03552	0.0938517
6	0xbd810443	-0.06299641
7	0x3d13529d	0.035967458
8	0x3c12fa91	0.0089708725
9	0xbbca714c	-0.006178057
10	0x3e4eacfe	0.20183179
11	0xbd36b095	-0.044601995
12	0x3d9e95ef	0.07743441
13	0x3df338ea	0.1187609
14	0x3b50de5e	0.0031870822
15	0x3e6885d4	0.22707301
16	0xbe6d814d	-0.23193856
17	0xbe3c2636	-0.18373951
18	0x3cdcfe68	0.02697678
19	0xbd8defd3	-0.069305085
20	0xbda43b9c	-0.08019182
21	0xbe9e2b23	-0.30892286
22	0xbcb39726	-0.02192266
23	0xbe87ad7c	-0.26499546
24	0x3d8efb0a	0.06981476
25	0x3d097676	0.03356024
26	0xbe1a009a	-0.15039292
27	0xbe06f667	-0.13179933
28	0x3e2e24af	0.17006181
29	0x3e299ab2	0.16562918
30	0xbcf9ba40	-0.030484319
31	0x3ddad255	0.10684649
32	0x3ee9de5a	0.45677453
33	0x3e1ee2f8	0.15516269
34	0xbe0949b8	-0.13407028
35	0xbe9a1d9e	-0.3010072
36	0xbda2fa09	-0.07957847
37	0x3d7bdf0a	0.061492004
38	0x3e387588	0.18013585
39	0xbe185efd	-0.14879985
40	0xbd282d2b	-0.0410587
41	0xbdcfee09	-0.101528235
42	0xbd946307	-0.072454505
43	0x3e5d4f29	0.21612228
44	0x3e2c0549	0.16798891
45	0xbba394e0	-0.0049921125
46	0x3e070e00	0.13188934
47	0x3dc5ea3e	0.09663819
48	0xbd232e3c	-0.039839014
49	0xbe0a25a1	-0.13490917
50	0x3cb94e00	0.022620201
51	0xbe8681d1	-0.26270917
52	0x3e374444	0.17897135
53	0xbcc43c7b	-0.02395462
54	0x3e662ce3	0.2247806
55	0x3d994b69	0.074850865
56	0x3e5b0e93	0.21392278
57	0xbcbb3bc9	-0.022855656
58	0x3d5d67c6	0.054054044
59	0xbb25e599	-0.0025313853
60	0x3e0191a6	0.12653217
61	0x3dbf1071	0.09329308
62	0x3e98a48d	0.29813042
63	0x3e0ea076	0.13928398
64	0x3ac0f440	0.001472123
65	0xbde2e9a4	-0.1107972
66	0x3cb44c57	0.022009058
67	0x3ec5569b	0.38542637
68	0x3e8b034b	0.2715095
69	0x3e9b22a0	0.30299854
70	0xbdf3d65e	-0.11906122
71	0x391754f8	0.00014432136
72	0x3e532230	0.2061851
73	0xbd9752bd	-0.07388828
74	0x3d662cb4	0.056194976
75	0xbd89c188	-0.06726366
76	0x3dd6714b	0.10470828
77	0x3e4478d7	0.19186722
78	0x3db46b9c	0.08809587
79	0x3e66f8a6	0.2255579
80	0x3e28ffeb	0.16503875
81	0x3e07745f	0.13227986
82	0xbd7bd1e1	-0.061479453
83	0x3cd2f0fb	0.025749674
84	0xbbf4ad0b	-0.0074669174
85	0xbdce7900	-0.10081673
86	0xbe44148c	-0.19148463
87	0xbd3139c4	-0.04326798
88	0x3e0156ae	0.12630722
89	0xbd2b1935	-0.041772086
90	0xbe2da014	-0.16955596
91	0xbe0506e2	-0.12990907
92	0x3ee271af	0.4422736
93	0x3e418403	0.18898015
94	0xbc4e0b78	-0.012575977
95	0x3e214fc3	0.15753083
96	0x3e0b05ed	0.1357648
97	0x3dc34bc3	0.09535935
98	0xbdbfcf1c	-0.09365675
99	0x3da381a8	0.07983714
100	0x3e18de51	0.14928557
101	0x3d6ab759	0.05730376
102	0xbe3a6164	-0.18201214
103	0x3e68eba0	0.22746134
104	0x3ced9d34	0.029005624
105	0x3d5bd04a	0.053665437
106	0x3e216dcc	0.1576454
107	0x3da6ec01	0.08150483
108	0xbc7284de	-0.014802186
109	0x3c2713cf	0.010197594
110	0x3e47c704	0.19509512
111	0xbd2de41f	-0.04245388
112	0x3eb00de9	0.34385613
113	0x3dac3e2d	0.084102966
114	0xbe6fec97	-0.23430096
115	0x3de4af5a	0.11166258
116	0x3e1fa986	0.15592012
117	0xbbe87ff1	-0.00709533
118	0xbe1aec75	-0.15129264
119	0x3c870a2c	0.016484343
120	0x3e85448b	0.26028857
121	0xbd3c7e64	-0.046018973
122	0xbd0d9513	-0.034565996
123	0x3d9f088a	0.077653006
124	0x3eb8b430	0.36074972
125	0xbbb068a8	-0.0053835697
126	0x3e8191f3	0.25306663
127	0x3e082998	0.13297117
128	0x3e377ded	0.1791913
129	0x3ef72d63	0.48276815
130	0xbf4372c9	-0.76347023
131	0xbf9fa4af	-1.2472132
132	0x3dcf55cd	0.10123787
133	0x3ed8af29	0.42321137
134	0xbd72dd64	-0.059293166
135	0xbe206eee	-0.15667316
136	0x3e26a2f3	0.16273098
137	0xbcf47279	-0.029839741
138	0x3ecd8ddf	0.40147302
139	0x3e72216f	0.23645566
140	0x3e4c9995	0.19980462
141	0x3dbd43a0	0.09241414
142	0x3eb543cf	0.35403296
143	0x3de8f7a7	0.11375361
144	0x3e1a6c94	0.15080482
145	0x3e68113b	0.22662823
146	0xbdebb551	-0.11509193
147	0xbe9cbd0f	-0.3061299
148	0x3dde7e84	0.10863975
149	0x3e45dfbc	0.19323629
150	0xbf2edef2	-0.6830894
151	0xbedcf3b8	-0.43154693
152	0x3e3bbe10	0.18334222
153	0xbc1d599f	-0.009603887
154	0xbefd2b1f	-0.4944696
155	0xbe09904c	-0.13433951
156	0x3e2a0997	0.1660522
157	0x3e87a813	0.26495418
158	0x3e0ec2af	0.13941453
159	0x3e091e76	0.13390526
160	0x3ddeab1c	0.1087248
161	0xbe24da93	-0.16099004
162	0x3e72e135	0.23718722
163	0xbedf1eec	-0.4357828
164	0xbdf9e205	-0.12201313
165	0xbc4a052e	-0.0123303365
166	0x3d7af170	0.06126541
167	0xbea0be4b	-0.31395182
168	0xbb625605	-0.0034536135
169	0x3dcd5398	0.1002571
170	0xbe132c48	-0.1437236
171	0x3e45f4ba	0.19331637
172	0x3d7333e1	0.059375647
173	0x3e52aa1f	0.20572709
174	0x3cd519ae	0.026013222
175	0x3e3d46ef	0.1848409
176	0xbccca198	-0.024979398
177	0x3decaf17	0.11556833
178	0xbc6a6fbc	-0.014308866
179	0xbcc8882f	-0.024479
180	0xbe3dfb63	-0.18552928
181	0x3e0e98c9	0.1392547
182	0xbcb2d926	-0.02183206
183	0xbe0463bd	-0.12928672
184	0x3db383e5	0.08765391
185	0x3e14e8f0	0.14541984
186	0x3e0f143e	0.13972566
187	0x3d8371cd	0.0641819
188	0x3e629bc0	0.22129726
189	0x3e95d339	0.29262713
190	0x3ea806be	0.32817644
191	0x3d0042f3	0.031313848
192	0x3f13c1bf	0.5771751
193	0x3d74f86a	0.05980722
194	0x3e8e528e	0.2779736
195	0xbec2d882	-0.38055807
196	0x3f6d160c	0.92611766
197	0x3dca181d	0.098678805
198	0x3f30bcd3	0.6903812
199	0x3e13a10e	0.14416906
200	0xbf44774c	-0.7674453
201	0xbd873fbd	-0.06603954
202	0xbeab2c25	-0.33432117
203	0x3e3957ba	0.18099871
204	0xbefa17df	-0.48846337
205	0xbe51ff3b	-0.20507519
206	0xbf107ae2	-0.56437504
207	0xba88e00c	-0.0010442748
208	0x3f6a36f8	0.91490126
209	0x3e80b4b7	0.25137874
210	0x3f0eb0d0	0.55738544
211	0xbc4194a9	-0.0118152285
212	0x3f2e4911	0.6808024
213	0x3eeb7350	0.45986414
214	0x3f003807	0.5008549
215	0x3e280bfb	0.1641082
216	0x3f560609	0.8360296
217	0x3eed7e87	0.46385595
218	0x3f32eb80	0.69890594
219	0x3ea93087	0.33044836
220	0x3f3e6af8	0.7438197
221	0x3f3068ff	0.6891021
222	0x3f236166	0.63820493
223	0x3ec0284a	0.37530738
224	0x3ee125c8	0.43974137
225	0x3f1a58e0	0.6029186
226	0x3f336b75	0.7008584
227	0x3f20373a	0.6258427
228	0xbdd7ec2e	-0.105430946
229	0x3eb843c7	0.3598921
230	0x3ebb5a80	0.36592484
231	0x3f3f83b1	0.7481032
232	0xbc9ee7be	-0.019397613
233	0xbea8fd0e	-0.33005565
234	0xbe22d025	-0.15899713
235	0xbeb5a6cd	-0.3547882
236	0x3e9bba62	0.30415636
237	0xbe16f888	-0.14743245
238	0x3e2e4129	0.17017044
239	0xbd94683c	-0.07246444
240	0xbc3e9ee7	-0.011634565
241	0x3ef180b2	0.471685
242	0x3eb9e766	0.36309355
243	0x3ed6f61d	0.41984645
244	0xbdc22673	-0.0947999
245	0x3e88653e	0.26639742
246	0x3dc72851	0.097244866
247	0x3f09f340	0.53886795
248	0xbe3162f7	-0.17322908
249	0x3e259d40	0.16173267
250	0x3e2db525	0.16963632
251	0x3eae6916	0.3406455
252	0xbcbd5237	-0.023110492
253	0x3e84970d	0.25896493
254	0x3e876351	0.2644296
255	0x3eafdf33	0.34349975

encoder.conv_1.bias f4 [16]
0	0x3e592f9d	0.2120957
1	0x3e2b978d	0.16757031
2	0xbce76c38	-0.028249845
3	0x3de66da5	0.11251382
4	0xbcfa561d	-0.03055864
5	0x3e3a12f9	0.181713
6	0x3dce4968	0.10072595
7	0x3c8085df	0.015688835
8	0x3ddfa411	0.10919965
9	0x3e2bfea5	0.16796358
10	0xbda00f8d	-0.07815466
11	0x3dcc4e39	0.09975857
12	0xbe162a0d	-0.14664479
13	0x3e9ce05f	0.30639932
14	0xbdc3183c	-0.09526107
15	0x3e993500	0.29923248

encoder.conv_2.weight f4 [32, 16, 3, 3]
0	0x3e349370	0.17634368
1	0x3cf48790	0.029849797
2	0x3d03225d	0.032015193
3	0x3d19ea4e	0.037576966
4	0x3ddec0f1	0.108766444
5	0x3e8f5845	0.27997032
6	0x3ecbaec9	0.39781788
7	0x3de1edad	0.11031661
8	0x3d5003b6	0.05078479
9	0x39f8e55b	0.0004747313
10	0x3e3a4910	0.18191934
11	0x3ea1547d	0.31509772
12	0x3da8ad50	0.08236182
13	0xbd847825	-0.06468228
14	0x3e079dc9	0.13243784
15	0x3cb7337f	0.022363422
16	0xbd937ccb	-0.07201537
17	0x3ea65b05	0.32491317
18	0x3d14fc7e	0.036373608
19	0x3df4faf8	0.11961931
20	0x3dfd0ea2	0.123563066
21	0x3d1aeeb8	0.037825316
22	0xbdb5cf17	-0.0887739
23	0x3e7a3ade	0.24436519
24	0x3efe8af8	0.497154
25	0x3e21ad61	0.15788795
26	0xbd61bae0	-0.05510986
27	0xbcbc12a7	-0.022958113
28	0x3dc66e6e	0.096890315
29	0x3e339ada	0.1753954
30	0x3cb2cfcd	0.021827603
31	0xbe43ac99	-0.1910881
32	0x3c93f216	0.018059772
33	0x3eb13091	0.34607366
34	0x3dc36d86	0.09542374
35	0x3b7178a3	0.0036845587
36	0x3e572f9c	0.21014255
37	0x3e292394	0.16517478
38	0x3d4d7766	0.050162695
39	0xbe2296ab	-0.15877788
40	0xbecd5902	-0.4010697
41	0xbe9445ca	-0.28959495
42	0x3ed55206	0.4166414
43	0xbc9ddbe4	-0.019269891
44	0xbca2e87b	-0.019886246
45	0x3e1387ff	0.14407347
46	0x3c24271a	0.010019088
47	0xbd903900	-0.07042122
48	0x3ca6d75e	0.020366367
49	0xbde7c344	-0.11316541
50	0x3db1fe23	0.08691051
51	0x3c81e2ca	0.015855212
52	0xbde54c72	-0.111962214
53	0x3e7728f7	0.2413672
54	0x3d9a278d	0.07527075
55	0x3d1b2f52	0.037886925
56	0xbe72be12	-0.23705319
57	0x3e9dade8	0.30796742
58	0x3d87a3f3	0.06623068
59	0xbf0eb69c	-0.5574739
60	0x3df7f2d2	0.12106861
61	0x3d91e520	0.0712378
62	0xbd79c94f	-0.060983
63	0x3e438e76	0.19097313
64	0xbf31b8e4	-0.69422746
65	0xbedd00aa	-0.4316457
66	0x3c47fde5	0.012206529
67	0xbeb3a515	-0.35086885
68	0xbd5d4ad5	-0.054026444
69	0xbdbf856c	-0.0935162
70	0x3a099012	0.00052476034
71	0x3eaae8c6	0.33380717
72	0x3d0dad12	0.03458888
73	0x3b3815f6	0.0028089262
74	0x3e2a2ab1	0.16617848
75	0xbd06b9fe	-0.03289222
76	0xbe295160	-0.16534948
77	0x3e65f8e0	0.2245822
78	0x3da9051e	0.08252929
79	0x3e6c85e2	0.23097947
80	0x3b9ee116	0.0048486097
81	0x3e11c297	0.14234386
82	0x3e7b2fdb	0.24529974
83	0x3ddde485	0.10834602
84	0x3e33c1d6	0.17554411
85	0x3dc397b9	0.09550423
86	0xbdc41c10	-0.09575665
87	0x3c98fbf5	0.01867483
88	0x3dfc1d3e	0.12310265
89	0x3d8ceba8	0.06880885
90	0xbc193c95	-0.009352823
91	0xbd053e50	-0.03253013
92	0x3d43a3af	0.047763523
93	0x3cb420f3	0.021988368
94	0xbc07cbd3	-0.008288342
95	0xbd9ec4d7	-0.07752388
96	0xbd5bc888	-0.05365804
97	0x3d20bc5f	0.039242145
98	0x3d5e8518	0.054326147
99	0xbc7c6acb	-0.015406321
100	0x3d8494ca	0.06473692
101	0x3e1963a8	0.14979422
102	0x3e313ab6	0.17307553
103	0x3ec9bd4c	0.39402235
104	0x3d9dc446	0.07703452
105	0xbcd54319	-0.026032971
106	0x3dfeee30	0.124477744
107	0xbd5a8635	-0.053350646
108	0x3cfa5134	0.030556299
109	0xbcab94ec	-0.020945035
110	0x3d4dc9fa	0.050241448
111	0x3c742ac7	0.014902777
112	0xbc1f01a8	-0.009704985
113	0xbced83eb	-0.028993567
114	0x3c1bb0a8	0.009502567
115	0x3c0f0d98	0.008731268
116	0x3d020e38	0.03175184
117	0xbdcd2ed1	-0.10018695
118	0x3e8f7727	0.28020594
119	0x3e5dfdd9	0.21678866
120	0xbe33fca7	-0.17576848
121	0x3cd03b0d	0.025418783
122	0x3e6ca853	0.23111086
123	0x3d59453d	0.053044546
124	0xbe6c206d	-0.23059244
125	0xbdcb1a56	-0.099171326
126	0x3c57de56	0.013175568
127	0xbe25a80d	-0.16177388
128	0xbd725822	-0.05916608
129	0x3d007b88	0.03136781
130	0xbe19a1dc	-0.1500315
131	0xbe014d57	-0.12627159
132	0x3cda1db0	0.026625484
133	0x3cef2b2c	0.02919539
134	0x3e028a99	0.12748183
135	0xbe1cecfc	-0.15324777
136	0x3ef650b9	0.48108461
137	0x3eb7e142	0.35914046
138	0xbe9d0a65	-0.30671993
139	0x3f119911	0.56874186
140	0x3f08b079	0.53394276
141	0x3ed0b94d	0.40766373
142	0xbd4e2064	-0.05032386
143	0xbdf87c50	-0.12133086
144	0xbd5e10e6	-0.054215334
145	0x3dfbf84b	0.123032175
146	0xbccd129f	-0.025033293
147	0x3e085dce	0.13317034
148	0x3e144ca6	0.14482364
149	0x3e1c65c8	0.15273201
150	0x3e2361dc	0.15955299
151	0x3df2e015	0.118591465
152	0x3eb343e9	0.3501275
153	0x3e327e35	0.17430957
154	0xbd2c9241	-0.042131666
155	0x3e9d34d3	0.30704364
156	0x3c4d2549	0.0125210965
157	0xbd86287e	-0.06550692
158	0x3d92678d	0.07148657
159	0x3d110e4a	0.035414018
160	0x3d11c698	0.035589784
161	0xbe62b2b7	-0.22138487
162	0xbe809284	-0.25111783
163	0x3e8e1dd6	0.27757138
164	0xbd82c28e	-0.063847646
165	0x3c0d81c0	0.008636892
166	0x3e760829	0.2402655
167	0x3d8a93a5	0.06766442
168	0x3e5079c0	0.20358944
169	0x3e09b6a5	0.1344858
170	0x3e26d236	0.16291127
171	0xbe7c7404	-0.24653631
172	0x3e6fc470	0.23414779
173	0xbeb13166	-0.34608
174	0xbe299bbf	-0.16563319
175	0xbcbe72f1	-0.023248168
176	0xbbd830d2	-0.0065976167
177	0xbdb74a62	-0.08949734
178	0x3d181dd9	0.03713784
179	0x3d914ff5	0.07095329
180	0xbde694f7	-0.112588815
181	0xbd3f8498	-0.04675731
182	0x3e268eb7	0.16265379
183	0x3d4862de	0.048922412
184	0xbd2679c7	-0.04064348
185	0xbe28ac26	-0.1647192
186	0x3ee2fcc0	0.44333458
187	0x3e914e0d	0.2837986
188	0xbe511475	-0.2041796
189	0x3e136a59	0.14396037
190	0xbe563e9b	-0.2092232
191	0x3e5f3b85	0.21800049
192	0xbdf2c932	-0.11854781
193	0xbd9c241f	-0.07624077
194	0xbe3f0fd2	-0.18658379
195	0xbca11699	-0.019664096
196	0xbc04d758	-0.008107983
197	0xbe7682ab	-0.24073283
198	0x3eb78186	0.35841006
199	0xbef81512	-0.48453575
200	0x3ef37390	0.47549105
201	0xbee79c12	-0.4523626
202	0xbe7da228	-0.24768889
203	0xbf28a844	-0.6588175
204	0xbf8a1347	-1.0787133
205	0xbe5c0230	-0.2148521
206	0xbf8b190b	-1.0867018
207	0xbee4bce4	-0.44675362
208	0x3df0479f	0.11732411
209	0xbfa9db97	-1.3270139
210	0xbf44a3dc	-0.7681253
211	0x3ef632ff	0.48085782
212	0xbf85c717	-1.0451382
213	0xbfc7fc0b	-1.5623792
214	0xbf2a204e	-0.66455543
215	0x3ef4ac2f	0.47787616
216	0x3e52fb31	0.20603634
217	0x3e8eb766	0.27874297
218	0xbe38f4df	-0.18062161
219	0xbdb79de4	-0.08965662
220	0x3eeae01d	0.4587411
221	0xbe0bbafa	-0.13645545
222	0x3e2bfc28	0.16795409
223	0x3ea86fcc	0.32897794
224	0x3f011395	0.50420505
225	0x3db25f47	0.08709579
226	0x3e9053d9	0.2818897
227	0xbdd11b2b	-0.1021026
228	0x3db333dc	0.08750126
229	0x3e0af6e9	0.13570751
230	0x3d63493a	0.055489756
231	0x3de1a794	0.11018291
232	0x3d83ddce	0.0643879
233	0x3f007068	0.5017152
234	0xbd5c40f0	-0.053772867
235	0x3caf6eb0	0.021415085
236	0xbc7729b2	-0.0150856245
237	0xbadaae40	-0.0016684011
238	0xbc765628	-0.01503519
239	0xbda23999	-0.07921142
240	0xbd80ece2	-0.06295182
241	0xbc1a23b1	-0.009407924
242	0xbcb80a62	-0.022465888
243	0xbdc9f3d4	-0.0986096
244	0x3d7fcdaa	0.062451996
245	0x3e5edd0d	0.21764012
246	0x3ea9e442	0.3318196
247	0x3c079d1d	0.008277205
248	0x3e831786	0.25603884
249	0xbdedf792	-0.11619486
250	0x3d3053c4	0.043048635
251	0x3e8a8a91	0.27058843
252	0xbd74cd60	-0.059766173
253	0x3d0921f0	0.03347963
254	0x3d46f462	0.048572905
255	0xbbef2950	-0.007298626

encoder.conv_2.bias f4 [32]
0	0x3ccd97dd	0.025096828
1	0xbd023eac	-0.03179805
2	0x3dd7ca35	0.10536615
3	0x3dc84ee2	0.09780671
4	0x3db681ef	0.089115016
5	0x3eb5e474	0.35525858
6	0xb9c34236	-0.0003724263
7	0x3ccb34a3	0.024805373
8	0x3c7a8181	0.015289665
9	0x3e2ec848	0.17068589
10	0x3d499421	0.049213532
11	0x3d62a656	0.05533441
12	0x3e115e82	0.14196208
13	0x3df50a7d	0.11964891
14	0xbd57cd09	-0.05268577
15	0x3df7a542	0.12092067
16	0x3d7d4091	0.061829153
17	0x3e1321dd	0.14368387
18	0xbd6e8d32	-0.058240123
19	0x3d4322bd	0.04764055
20	0x3d5c1632	0.053732105
21	0x3d9412a7	0.0723012
22	0xbc3652e7	-0.011128164
23	0x3dc0c897	0.094132595
24	0xbc96b3c2	-0.018396262
25	0x3d0b395a	0.03399024
26	0x3d979f94	0.07403484
27	0x3e0fe77d	0.1405315
28	0x3d94011a	0.072267726
29	0x3ccd7526	0.025080275
30	0x3db0a598	0.086253345
31	0x3e250695	0.16115792

encoder.conv_3.weight f4 [10, 32, 3, 3]
0	0x3df805fe	0.12110518
1	0xbdd5e549	-0.10444123
2	0x3d63a7e5	0.05558004
3	0x3e7ef71b	0.24898951
4	0x3aa1cc5d	0.001234423
5	0x3d51fa5e	0.05126416
6	0x3e6f83cd	0.23390122
7	0x3ccbc46a	0.024873931
8	0x3ddb9f75	0.107237734
9	0x3e7622e7	0.24036752
10	0x3e61bba5	0.22044237
11	0xbf0aa564	-0.54158616
12	0x3d037959	0.032098148
13	0xbcee9ae9	-0.029126601
14	0x3e553204	0.2081986
15	0x3eb7bcce	0.35886234
16	0x3ea20906	0.3164751
17	0x3ddb523a	0.10709043
18	0x3dcf703a	0.101288274
19	0xbeba92bc	-0.36440074
20	0xbeb5567a	-0.3541754
21	0x3dd57a97	0.10423773
22	0xbd19e16c	-0.037568495
23	0xbd240b93	-0.0400501
24	0x3e2d4e03	0.1692429
25	0x3d9f6bb5	0.07784215
26	0xbd8e7a4d	-0.06956921
27	0xbde69873	-0.11259546
28	0x3e9fef82	0.31237417
29	0xbe2e5b03	-0.17026906
30	0xbc79efdb	-0.01525494
31	0x38e20e27	0.00010779156
32	0x3e12e1c6	0.14343938
33	0x3d217be0	0.039424777
34	0xbe85aa6a	-0.26106578
35	0xbd9f548f	-0.077798
36	0x3d98fddb	0.07470294
37	0xbd633f9d	-0.05548059
38	0xbe02c182	-0.1276913
39	0xbd667508	-0.056263953
40	0x3d36f478	0.044666737
41	0xbd346d22	-0.04404939
42	0x3ea1cf57	0.316035
43	0x3e59016c	0.21191949
44	0x3c1183e7	0.008881546
45	0x3db16b37	0.08663028
46	0xbe887055	-0.26648203
47	0x3b94cb68	0.0045408495
48	0x3e306f6f	0.17230009
49	0xbeb86f35	-0.36022344
50	0x3e78cd95	0.24297173
51	0xbe6b349a	-0.22969285
52	0xbe40b831	-0.18820263
53	0xbe9e1edc	-0.3088292
54	0x3dd7eabc	0.10542819
55	0xbe8d4446	-0.2759115
56	0xbe94daf9	-0.29073313
57	0x3d315f9a	0.043304063
58	0xbedf712b	-0.43641028
59	0xbd55f0d6	-0.052231632
60	0x3ea2ee5a	0.31822473
61	0xbdfe6035	-0.12420694
62	0xbe1c97b3	-0.15292244
63	0x3dbc6a43	0.09199955
64	0x39913f13	0.0002770355
65	0xbcf5813d	-0.029968852
66	0x3caff5c8	0.021479502
67	0xbd8c225e	-0.068424925
68	0xbe971f77	-0.29516193
69	0x3deeefeb	0.116668545
70	0x3f0c653b	0.54841965
71	0x3c80fbfa	0.015745152
72	0x3d951ad8	0.07280511
73	0xbd827b7d	-0.0637121
74	0xbe602dc2	-0.21892455
75	0xbc75cd8d	-0.01500262
76	0xbdeb7cff	-0.114984505
77	0xbda68c0b	-0.0813218
78	0x3e64dec5	0.22350605
79	0xbe51f779	-0.2050456
80	0xbdb77109	-0.089571066
81	0x3e076065	0.13220365
82	0x3d16869a	0.03674946
83	0xbab38328	-0.0013695704
84	0xbc3092e7	-0.010777212
85	0x3ac6c8e2	0.0015166069
86	0x3db4c4cf	0.08826601
87	0xbc1dd196	-0.009632489
88	0xbea073f0	-0.31338453
89	0xbde7a312	-0.113104
90	0x3e03f5b2	0.12886694
91	0x3dd7853c	0.10523459
92	0x3d0fd4aa	0.03511492
93	0x3cfcaea2	0.03084499
94	0x3e5810db	0.2110018
95	0x3eab159e	0.3341493
96	0xbdde1411	-0.10843671
97	0x3cef3631	0.029200645
98	0x3e17d2ae	0.14826462
99	0xbd636e0e	-0.05552488
100	0x3c6e02e8	0.01452706
101	0xbd173b77	-0.036921944
102	0xbce6f00a	-0.028190631
103	0x3ddd4dcf	0.108058564
104	0xbd031ca0	-0.03200972
105	0x3e631f7a	0.22179976
106	0x3e26de89	0.16295828
107	0x3e2dc9ee	0.16971561
108	0x3de38d9a	0.11110993
109	0xbed9998a	-0.42499954
110	0xbeb954bb	-0.36197457
111	0xbecc5a9f	-0.39912888
112	0x3e7018d5	0.23446973
113	0xbea91343	-0.33022508
114	0x3dae3dac	0.08507857
115	0xbef8f135	-0.48621526
116	0xbef8396c	-0.4848131
117	0x3e4bf9b4	0.19919473
118	0xbf2199be	-0.63125217
119	0xbea361f5	-0.31910673
120	0xbcf83c12	-0.030302081
121	0xbccc3e3a	-0.024932016
122	0x3d0de502	0.034642227
123	0x3e4a7660	0.19771719
124	0x3fa03ee4	1.2519193
125	0x3e549660	0.20760489
126	0x3d928811	0.07154859
127	0x3dd48d29	0.10378487
128	0xbecf6131	-0.4050384
129	0x3d89d1ae	0.06729446
130	0xbd21554f	-0.039387997
131	0x3e8cfd12	0.27536827
132	0x3f35171c	0.7073839
133	0xbf4e4915	-0.80580264
134	0xbd6fa32d	-0.058505226
135	0x3e09cf8f	0.13458084
136	0x3d1a1e56	0.037626587
137	0x3d69785f	0.05699956
138	0xbd8ed075	-0.06973354
139	0x3d5dfc45	0.05419566
140	0x3e15b6ca	0.1462051
141	0x3e6252af	0.22101854
142	0x3e54ef71	0.20794465
143	0x3cd2ce8c	0.025733255
144	0x3d0fd662	0.03511656
145	0xbd8b35dc	-0.06797382
146	0xbc9c3230	-0.0190669
147	0xbe1f7a44	-0.15573984
148	0x3d971dbf	0.073787205
149	0x3dee0086	0.116211936
150	0xbdabb929	-0.08384926
151	0xbd26fca5	-0.040768284
152	0x3d2bcc03	0.041942608
153	0x3d74daf8	0.059779137
154	0xbd4d02df	-0.050051566
155	0xbddbfd19	-0.10741634
156	0x3cc43efa	0.02395581
157	0xbb8d9fb2	-0.0043220157
158	0x3e1443e4	0.14479023
159	0x3e2a82d8	0.16651475
160	0xbe3da75c	-0.18520874
161	0x3d8245c2	0.063609615
162	0xbd402667	-0.046911623
163	0xbd3a3e3d	-0.04546951
164	0x3da013c6	0.078162715
165	0xbbb6a572	-0.005573922
166	0x3d1f82f5	0.03894325
167	0x3bf512a3	0.0074790283
168	0x3e224513	0.15846662
169	0xbe9c6144	-0.30542958
170	0x3c248dbf	0.0100435605
171	0x3e27f675	0.1640261
172	0x3d90d035	0.07070962
173	0x3c863d6b	0.016386708
174	0xbca20cb5	-0.01978145
175	0x3c806d77	0.015677197
176	0x3e28476a	0.16433492
177	0x3e645832	0.22299269
178	0x3e557f08	0.2084924
179	0xbd1dccd4	-0.038525417
180	0xbddb050a	-0.106943205
181	0x3d818772	0.06324662
182	0x3c950085	0.018188724
183	0x3b9be9e1	0.004758105
184	0x3da2b85b	0.07945319
185	0x3e39780a	0.18112198
186	0xbdc1dfb5	-0.09466497
187	0x3e5a2090	0.21301484
188	0x3e7ec91f	0.24881409
189	0x3e293f64	0.16528088
190	0x3d9c9a36	0.07646601
191	0x3e22d26f	0.15900587
192	0x3e072a07	0.13199626
193	0x3ddf7832	0.10911597
194	0xbd0c31a5	-0.034227032
195	0x3d75dd73	0.060025644
196	0x3cacb277	0.021081192
197	0x3dc86e2c	0.097866386
198	0x3ce2e7e9	0.027698474
199	0xbae546f3	-0.0017492458
200	0x3dc624e5	0.09675006
201	0x3d8996f5	0.06718246
202	0x3d23a868	0.039955527
203	0xbcb488e6	-0.022037935
204	0x3e94b9d8	0.29048038
205	0x3d4108ab	0.047127407
206	0x3e17da23	0.14829306
207	0x3e47f557	0.19527183
208	0x3e9a1ebc	0.30101573
209	0x3e22d938	0.15903175
210	0x3d112798	0.03543815
211	0xbe388abc	-0.18021673
212	0xbc51207d	-0.0127640935
213	0x3eb35fcb	0.35034022
214	0x3e49e5f5	0.19716628
215	0xbbb4b1d9	-0.005514365
216	0x3e31a0ab	0.17346446
217	0xbbf55085	-0.0074864053
218	0x3d889c15	0.06670395
219	0x3dd95bfd	0.106132485
220	0x3cbb51f0	0.02286622
221	0xbd9c8ec0	-0.07644415
222	0x3d9ae491	0.07563127
223	0xbe968396	-0.29397267
224	0xbe5b509d	-0.2141747
225	0x3eadde2b	0.33958563
226	0xbde36ed8	-0.11105126
227	0xbe8f517b	-0.27991852
228	0xbe3ff341	-0.18745138
229	0xbdce7ee4	-0.10082796
230	0x3e165258	0.14679849
231	0x3e9257d1	0.28582624
232	0xbf298186	-0.6621326
233	0xbdd8aaa5	-0.10579423
234	0xbdc0c779	-0.094130464
235	0x3dcf54b9	0.101235814
236	0x3d806f47	0.062712245
237	0xbdd52a05	-0.10408405
238	0xbc81b325	-0.015832493
239	0x3de0981b	0.10966512
240	0x3e830d45	0.2559606
241	0x3e8d5052	0.27600342
242	0x3e79add2	0.24382713
243	0xbe1d9b7b	-0.15391342
244	0xbe3ca705	-0.18423088
245	0x3f34d27a	0.7063366
246	0x3efb7269	0.49110726
247	0x3cb3557b	0.021891346
248	0x3d00f28f	0.031481322
249	0xbe858924	-0.26081192
250	0x3e1b4c09	0.15165724
251	0xbe3e798b	-0.18601052
252	0x3e058c03	0.13041691
253	0x3edc42c8	0.430197
254	0xbdc5522a	-0.09634812
255	0x3e07e336	0.13270268

encoder.conv_3.bias f4 [10]
0	0x3dc0d735	0.094160475
1	0x3db4bfbe	0.088256344
2	0x3d6bc15d	0.057557452
3	0x3c023457	0.007947049
4	0x3d81b00c	0.063324064
5	0xbd85d997	-0.065356426
6	0x3d27f106	0.041001342
7	0xbd84417e	-0.06457804
8	0xbd1f7053	-0.03892548
9	0x3e087814	0.13327056

decoder.deconv_0.weight f4 [10, 32, 3, 3]
0	0x3c0f0f41	0.008731664
1	0xbce15a3f	-0.027508853
2	0xbd119e0c	-0.035551116
3	0x3ec43bf8	0.38327003
4	0x3b739103	0.003716529
5	0xbdb1b056	-0.086762115
6	0x3eacd88f	0.3375897
7	0x3da7d8e2	0.08195664
8	0xbc0d26fb	-0.008615251
9	0x3da1ace0	0.078943014
10	0x3e842b5a	0.25814325
11	0x3de8f089	0.113740034
12	0x3d930ac6	0.07179789
13	0x3c1a0846	0.009401387
14	0xbd872196	-0.06598203
15	0xbe803b06	-0.2504503
16	0xbcced44d	-0.025247717
17	0x3c6551e8	0.013996579
18	0xbe06b9c4	-0.13156801
19	0x3d5c2fe2	0.053756602
20	0xbcb7127c	-0.022347681
21	0xbea064eb	-0.31326994
22	0xbbbb0a9c	-0.005708052
23	0x3a19967a	0.00058589096
24	0xbeb82f94	-0.359738
25	0xbe8d206b	-0.27563795
26	0x3dfe5a41	0.12419558
27	0x3e2e1015	0.16998322
28	0x3e0d7c9d	0.13817067
29	0x3d69de11	0.057096545
30	0x3deae04b	0.11468562
31	0x3da4d9e0	0.08049369
32	0xbd2a3d86	-0.04156258
33	0x3dd5c28e	0.10437499
34	0x3d89044c	0.06690273
35	0xbe39e4ae	-0.1815364
36	0x3c918392	0.017762933
37	0xbda4f6c1	-0.08054877
38	0xbd1dd78b	-0.038535636
39	0xbdc12a8b	-0.094319426
40	0xbd05f4f3	-0.032704305
41	0xbda537aa	-0.08067258
42	0x3e5768f4	0.2103613
43	0x3e92c351	0.2866464
44	0xbe094955	-0.1340688
45	0xbd01d387	-0.03169587
46	0xbcbfb8c2	-0.02340353
47	0xbd6ce0f8	-0.057831734
48	0xbe49b712	-0.19698742
49	0x3c44e661	0.012017817
50	0x3d4f54e5	0.05061807
51	0x3d8c02e8	0.06836492
52	0xbe817d24	-0.25290787
53	0x3c27d675	0.010244002
54	0x3e74a343	0.23890404
55	0x3e2c67c3	0.16836457
56	0xbe8cb45b	-0.2748135
57	0x3dae0e5b	0.08498832
58	0xbe3f0adf	-0.1865649
59	0xbda80352	-0.08203758
60	0x3e328e4f	0.17437099
61	0x3daecec3	0.085355304
62	0xbd5feb9e	-0.05466806
63	0x3d6cee89	0.057844672
64	0x3c9a136c	0.01880809
65	0xbe506b97	-0.20353542
66	0xbe01aca5	-0.12663515
67	0xbd906fbf	-0.07052564
68	0xbc17d8b9	-0.009267979
69	0x3d14fefb	0.03637598
70	0x3eb14bd0	0.34628153
71	0xbe98e3cc	-0.29861295
72	0x3d8ae660	0.06782222
73	0x3da599e5	0.08085994
74	0xbda99802	-0.08280946
75	0xbd1d5a54	-0.03841622
76	0x3d643dd9	0.055723045
77	0xbadb4585	-0.0016729092
78	0xbd231c36	-0.039821826
79	0xbe3e153a	-0.18562785
80	0x3a069694	0.0005134132
81	0x3dd9659c	0.106150836
82	0x3d33cd31	0.043896858
83	0x3ae0fc9b	0.0017165126
84	0xbd9dce86	-0.07705407
85	0x3cf7fd84	0.030272253
86	0x3d3bbe74	0.045835927
87	0x3d69b832	0.057060428
88	0xbdc17bf6	-0.09447472
89	0xbd46ddd6	-0.048551403
90	0xbd3902c7	-0.045168664
91	0xbd785c94	-0.060635164
92	0x3b88f669	0.004179765
93	0xbe029fa6	-0.12756214
94	0xbd960f19	-0.073270984
95	0x3e11c4a0	0.14235163
96	0x3f19d6a9	0.6009317
97	0x3d79cca5	0.06098618
98	0xbd55c3bb	-0.052188616
99	0x3e0e80fd	0.13916393
100	0x3e52c542	0.2058306
101	0xbda096ec	-0.07841286
102	0x3c9bfb52	0.019040737
103	0xbc4b6a8b	-0.012415539
104	0x3dcf7172	0.1012906
105	0x3deef098	0.11666983
106	0x3c535e3a	0.012900883
107	0x3e0fdf90	0.14050126
108	0x3de789c4	0.113055736
109	0x3c64feaf	0.013976737
110	0xbd4ec2a7	-0.050478604
111	0xbca1e597	-0.019762797
112	0xbd37a4db	-0.044834953
113	0xbe7ca872	-0.24673632
114	0xbcf8bb57	-0.030362768
115	0xbd200c81	-0.039074425
116	0x3dca8f34	0.09890595
117	0x3e925be4	0.28585732
118	0x3d86a26c	0.06573948
119	0xbe3ee1e9	-0.18640865
120	0xbc68a0df	-0.014198511
121	0xbc7a627b	-0.015282269
122	0xbe3211fa	-0.1738967
123	0x3ecf8e45	0.4053823
124	0x3e030074	0.12793142
125	0x3dffeac9	0.124959536
126	0xbe17de6f	-0.14830945
127	0x3e17bc07	0.1481782
128	0xbdd55605	-0.104167975
129	0x3dc60c41	0.09670306
130	0xbd555d6c	-0.052091047
131	0xbd08cbdb	-0.033397537
132	0xbe1b300c	-0.15155047
133	0x3dc37c0d	0.09545145
134	0x3b145024	0.0022630775
135	0xbd5c077f	-0.053718086
136	0x3da70da5	0.08156899
137	0x3d010e2b	0.031507652
138	0xbd262806	-0.040565513
139	0xbe88ad8a	-0.266949
140	0xbbce1f0c	-0.006290322
141	0x3e4302eb	0.19044082
142	0x3cfec602	0.031100277
143	0x3e729dc1	0.23692991
144	0xbe0c39c4	-0.13693911
145	0x3e44f12b	0.19232623
146	0x3dc2df8d	0.09515295
147	0x3d615cd4	0.05502017
148	0x3e40785c	0.18795913
149	0xbd8d6eae	-0.06905876
150	0xbc26b7b4	-0.010175634
151	0x3dc18b08	0.09450346
152	0x3e3b8306	0.183117
153	0x3b88955a	0.0041681947
154	0x3e01861e	0.12648818
155	0xbd35f496	-0.04442271
156	0x3d688aae	0.05677288
157	0xbd545a47	-0.051843908
158	0xbe070606	-0.13185892
159	0x3cbd7e55	0.023131529
160	0x3cd7ffe4	0.026367135
161	0xbe159d8f	-0.14610885
162	0xbdd0558f	-0.10172569
163	0xbdf15040	-0.117828846
164	0x3d8ae172	0.067812815
165	0x3dd3afec	0.10336289
166	0x3d2046ca	0.03913001
167	0xbe0de88b	-0.1385824
168	0x3e0049e9	0.12528194
169	0x3e941353	0.28920993
170	0xbc9036bd	-0.017604226
171	0x3e1425b9	0.14467515
172	0xbbcf143e	-0.0063195517
173	0x3cea1a1e	0.028576907
174	0xbd5bfd60	-0.053708434
175	0xbc5480cd	-0.012970162
176	0x3dbf298b	0.093340956
177	0x3dfe0cf5	0.12404815
178	0xbe86717d	-0.2625846
179	0x3b6df2a3	0.0036307953
180	0xbcd37880	-0.025814295
181	0x3d1b85c8	0.03796938
182	0x3db473bc	0.08811137
183	0xbe1ddd4c	-0.1541645
184	0xbc35b1f5	-0.011089792
185	0xbdd06e22	-0.10177256
186	0xbe29075b	-0.16506712
187	0x3d133450	0.03593856
188	0xbdb9d84c	-0.090744585
189	0x3b0816f3	0.0020765632
190	0x3d27c4da	0.040959217
191	0xbd9125be	-0.07087277
192	0xbd0fb688	-0.035086185
193	0xbb046337	-0.0020200738
194	0x3b916c18	0.0044379346
195	0x3dff1a24	0.12456158
196	0xbd1326fd	-0.035925854
197	0x3df82e47	0.12118202
198	0xbd4b32f3	-0.049609136
199	0xbd7947d4	-0.060859516
200	0x3e3dfed3	0.18554239
201	0x3d6656a4	0.05623497
202	0xbda21ffa	-0.07916255
203	0xbe376444	-0.17909342
204	0xbca1e777	-0.019763691
205	0xbd994c7d	-0.07485292
206	0xbc2dff46	-0.010619944
207	0x3e2e1378	0.16999614
208	0xbd5751cd	-0.052568246
209	0xbdbf9e1a	-0.09356327
210	0xbd1887f7	-0.03723904
211	0xbcb46733	-0.022021865
212	0x3e442145	0.19153316
213	0x3cc5c9b3	0.02414403
214	0x3de62a7e	0.112385735
215	0x3e792bbe	0.24333093
216	0x3ee6fce4	0.45114815
217	0x3e25a094	0.16174537
218	0x3e237928	0.15964186
219	0x3de2a072	0.11065759
220	0xbe83fb95	-0.2577788
221	0xbd6f22ad	-0.05838268
222	0xbd0eccd7	-0.03486332
223	0x3e7ad47e	0.24495122
224	0x3d7370b8	0.05943367
225	0x3d30e1d2	0.04318411
226	0xbd128702	-0.035773285
227	0xbd938ff8	-0.07205194
228	0xbe83d9bc	-0.25752056
229	0x3d9f1790	0.07768166
230	0x3da1832b	0.078863464
231	0xbcef69c0	-0.02922523
232	0xbeb28b25	-0.34871784
233	0xbbab46d2	-0.0052269483
234	0x3d2f8e2f	0.042860206
235	0x3e7f1fe6	0.24914512
236	0x3cf5557b	0.029947987
237	0x3e43c444	0.19117838
238	0xbd14410b	-0.036194842
239	0xbe4d2762	-0.20034555
240	0x3e63297c	0.22183794
241	0xbdcffabb	-0.10155245
242	0x3dda8c15	0.1067125
243	0x3db46c42	0.08809711
244	0xbd1e6d38	-0.038678378
245	0xbe1ed440	-0.15510654
246	0xbca7b205	-0.020470629
247	0x3e019f10	0.12658334
248	0x3e6af037	0.22943197
249	0xbd2736ac	-0.040823624
250	0xbd3faac9	-0.046793733
251	0x3eef02a8	0.46681714
252	0x3e4876d0	0.19576573
253	0xbc8ab2ea	-0.016931016
254	0x3d830f0b	0.063993536
255	0xbd94a73b	-0.07258459

decoder.deconv_0.bias f4 [32]
0	0x3f97d1a3	1.1860851
1	0xbf728f98	-0.94750357
2	0x3ede3626	0.43400687
3	0x3de8d441	0.11368609
4	0x3ed8c2ee	0.4233622
5	0x3fa0abdb	1.2552446
6	0x3f2b9572	0.6702491
7	0xbe719537	-0.23592077
8	0x3e9f79b1	0.3114753
9	0x3eb4e04a	0.3532737
10	0xbed4be54	-0.4155146
11	0x3f01f0c6	0.50758016
12	0xbe7ad9ea	-0.2449719
13	0xbe10074d	-0.14065285
14	0xbf68a041	-0.9086953
15	0xbfdb20f6	-1.7119434
16	0x3f879424	1.0592084
17	0x3e7c37e2	0.24630693
18	0xbf8a718e	-1.0815904
19	0x3fa9e28b	1.327226
20	0x3f852912	1.0403159
21	0x3fa21d38	1.2665167
22	0xbe56e37f	-0.2098522
23	0x3f852f2c	1.0405021
24	0x3ea9f0f9	0.3319166
25	0x3f812bfc	1.0091548
26	0xbe4905f6	-0.1963118
27	0xbf1f2b16	-0.6217512
28	0x3ef30360	0.47463512
29	0xbf0c9d7a	-0.5492779
30	0xbd10e101	-0.03537083
31	0xbf95634c	-1.1670928

decoder.deconv_1.weight f4 [32, 16, 3, 3]
0	0x3e185b6b	0.14878623
1	0xbdd0f920	-0.10203767
2	0x3d906344	0.070501834
3	0x3e5261da	0.2054514
4	0x3dd2f2f7	0.10300248
5	0xbdb2e870	-0.0873574
6	0x3c62a13f	0.013832389
7	0x3bbbe11c	0.0057336222
8	0xba418695	-0.000738242
9	0x3e5668d9	0.20938434
10	0xbf11def3	-0.5698082
11	0x3d388a41	0.045053724
12	0x3e0f0806	0.13967904
13	0x3e6ffb8a	0.23435798
14	0x3c06c4d8	0.008225642
15	0xbd4531e7	-0.048143294
16	0xbe8499e1	-0.2589865
17	0x3d35fdc2	0.044431455
18	0x3de1be59	0.11022634
19	0xbf053ac5	-0.520428
20	0x3e16912c	0.14703816
21	0x3d5a494f	0.05329257
22	0xbce827f8	-0.028339371
23	0xbc01461b	-0.00789025
24	0xbd6f63ec	-0.058444902
25	0x3e1abcbb	0.15111057
26	0xbb3e8499	-0.0029070734
27	0x3ed25ac0	0.41084862
28	0x3e4d7a27	0.20066129
29	0xbd89ace2	-0.06722428
30	0x3e0a710b	0.13519685
31	0x3d2cd52d	0.042195488
32	0x3ced1561	0.028940858
33	0xbe01ba67	-0.12668763
34	0xbd71a39c	-0.05899392
35	0x3d27a619	0.040929887
36	0x3f59156e	0.84798324
37	0x3e5cb60d	0.21553822
38	0x3d9ad399	0.0755989
39	0x3e765d08	0.24058926
40	0x3d602f35	0.05473252
41	0x3c84218b	0.016129276
42	0xbe381304	-0.17976004
43	0xbe125ff4	-0.14294416
44	0xbd857f8d	-0.06518469
45	0xbe88b4d1	-0.26700452
46	0x3db96b59	0.09053678
47	0xbc6660a0	-0.014061123
48	0x3dc7b52b	0.09751352
49	0x3e87bc41	0.26510814
50	0xbc3d04b0	-0.011536762
51	0x3e410111	0.18848063
52	0x3be72e60	0.007055089
53	0xbe22b482	-0.15889171
54	0x3da3c524	0.07996586
55	0xbe18dda9	-0.14928307
56	0xbd36634b	-0.044528287
57	0x3e96fd2d	0.29490033
58	0x3ee868fc	0.45392597
59	0xbde591d7	-0.11209457
60	0xbd80d3b5	-0.0629038
61	0x3c343746	0.010999506
62	0x3da1255a	0.07868452
63	0x3e609846	0.21933088
64	0xbf4773f1	-0.7791129
65	0xbe9864ff	-0.29764554
66	0xbd76eab6	-0.06028243
67	0x3df4655e	0.11933397
68	0x3d8375ab	0.06418928
69	0xbcca4cda	-0.024694849
70	0xbe36ffbe	-0.17870995
71	0x3dcd66e6	0.10029392
72	0x3ef88aaf	0.48543307
73	0x3d724954	0.059151962
74	0xbe493855	-0.19650395
75	0xbe2dc217	-0.1696857
76	0xbe960eb0	-0.2930808
77	0xbd825b73	-0.06365099
78	0xbe272d43	-0.1632586
79	0xbcc37fef	-0.023864714
80	0x3dc76ad5	0.097371735
81	0xbecee364	-0.4040786
82	0xbd93acb3	-0.07210674
83	0xbc558057	-0.013031087
84	0x3de0277e	0.109450325
85	0x3e0960bf	0.13415812
86	0x3e57d54c	0.2107746
87	0xbd152fed	-0.03642266
88	0xbe344bed	-0.17607088
89	0xbd6e48d1	-0.058174912
90	0xbe8bba6c	-0.27290666
91	0xbbef8bfd	-0.007310389
92	0x3d63a493	0.055576872
93	0xbdd6f573	-0.104960345
94	0x3d76d388	0.060260326
95	0x3e4ca953	0.19986467
96	0xbe6ad9e9	-0.22934689
97	0xbe1a2783	-0.15054135
98	0xbd98ee94	-0.0746738
99	0xbeac5240	-0.33656502
100	0xbee60968	-0.4492905
101	0x3e681dae	0.22667572
102	0x3cc21280	0.023690462
103	0xbde68e26	-0.112575814
104	0x3c9119c1	0.017712476
105	0xbe1467f0	-0.14492774
106	0x3cd84636	0.026400667
107	0xbc3c36ff	-0.011487721
108	0xbcbc9574	-0.023020484
109	0xbe7d274a	-0.24722019
110	0xbd8174e9	-0.06321127
111	0xbe381c7b	-0.17979614
112	0x3e764805	0.24050911
113	0xbd144cb4	-0.036205962
114	0xbe2a5f70	-0.16637969
115	0xbeafee15	-0.3436133
116	0x3d8e9cae	0.06963478
117	0xbcb72f80	-0.022361517
118	0x3c6884f0	0.014191851
119	0x3d6efc73	0.058346223
120	0x3d1f10fa	0.03883455
121	0xbeaf76b1	-0.34270242
122	0xbe54da68	-0.2078644
123	0xbde9aedf	-0.11410307
124	0xbdd7ce8e	-0.10537444
125	0xbc891cc3	-0.016737347
126	0x3e40fbbd	0.1884603
127	0xbe2a8116	-0.16650805
128	0x3df7c38a	0.12097843
129	0xbeda05c1	-0.42582515
130	0xbd4a92e0	-0.049456477
131	0xbe9aa489	-0.30203655
132	0xbd31ba64	-0.043390647
133	0xbd7634d6	-0.060108982
134	0x3d54c921	0.051949624
135	0xbeea3ea9	-0.4575093
136	0x3de1c615	0.11024109
137	0x3cf90275	0.03039668
138	0x3de7b65a	0.11314078
139	0x3e4f10c3	0.20221238
140	0xbd130e9b	-0.0359026
141	0x3dfd9392	0.123816624
142	0xbde230d9	-0.11044473
143	0x3c2dbac5	0.010603611
144	0x3d28d2b9	0.041216586
145	0xbd8dade4	-0.06917933
146	0x3db92446	0.09040122
147	0x3ed43758	0.41448474
148	0xbe158607	-0.14601909
149	0xbe20b6b2	-0.15694693
150	0xbe289087	-0.16461383
151	0xbe0ea5ae	-0.1393039
152	0xbdaa3ab5	-0.08311979
153	0xbe6a6c1d	-0.22892804
154	0x3d8a23c7	0.06745105
155	0xbdce421d	-0.10071204
156	0x3e1bb194	0.1520446
157	0x3d933013	0.07186904
158	0x3d69139f	0.056903478
159	0x3e0ee279	0.1395358
160	0xbd80fa92	-0.062977925
161	0x3c160ad5	0.009157856
162	0x3e808289	0.2509959
163	0xbe7cf1fd	-0.24701686
164	0x3cfea790	0.03108576
165	0xbe13e4b4	-0.14442712
166	0x3cef6151	0.029221209
167	0x3e51ba88	0.20481312
168	0x3c9ae24a	0.018906731
169	0x3d9048ab	0.0704511
170	0x3d1378c0	0.036003828
171	0x3f1de864	0.61682725
172	0x3d223451	0.039600674
173	0xbec9c080	-0.39404678
174	0x3e17efb1	0.14837529
175	0xbe9a4290	-0.30128908
176	0xbd47df9c	-0.048797235
177	0xbd8c1e03	-0.06841662
178	0xbe3b7050	-0.18304563
179	0x3da7a608	0.08185965
180	0x3c830ab1	0.015996309
181	0x3d5548d0	0.052071393
182	0xbe213307	-0.15742122
183	0x3e935d19	0.28781965
184	0xbdaaf62c	-0.08347735
185	0xbe020117	-0.12695728
186	0x3cfccf46	0.030860554
187	0xbdc9309a	-0.09823723
188	0xbcd778db	-0.026302746
189	0x3e10fe59	0.14159526
190	0xbea0e73f	-0.31426427
191	0x3c0e1263	0.008671376
192	0x3dd77570	0.10520446
193	0x3e04d426	0.12971553
194	0x3df2f218	0.11862582
195	0xbddd9a97	-0.10820501
196	0x3dee58d2	0.11638035
197	0x3d9519af	0.072802894
198	0x3e661ebc	0.22472662
199	0x3e7a5bcf	0.24449085
200	0xbd8b16b3	-0.06791439
201	0xbe23ffde	-0.16015574
202	0x3dfa3551	0.122172005
203	0x3cd2d156	0.025734585
204	0x3e3407df	0.17581128
205	0xbdbb0285	-0.0913134
206	0xbdcd8685	-0.10035423
207	0xbe432d45	-0.19060238
208	0x3d300e8b	0.04298262
209	0xbb9b9956	-0.0047485037
210	0x3c815812	0.015789066
211	0x3dcfbff3	0.10144033
212	0x3e55614f	0.20837902
213	0xbe360c15	-0.17778046
214	0x3ca63406	0.020288479
215	0x3e1f6d2b	0.15568988
216	0x3ea4fcc3	0.32224092
217	0x3c71de01	0.0147624025
218	0x3d985626	0.074383065
219	0x3e9039fc	0.2816924
220	0xbe295b44	-0.16538721
221	0xbcaa670a	-0.020801086
222	0x3e12d91a	0.1434063
223	0xbce42be9	-0.02785297
224	0x3d3abf8e	0.045592837
225	0x3e7f99d0	0.24961019
226	0xbe6ac060	-0.22924948
227	0x3e04a0a4	0.12951905
228	0x3c558c7e	0.013033984
229	0x3d13545e	0.03596913
230	0xbdef3285	-0.11679558
231	0x3ebeace3	0.37241277
232	0xbdb1f8a0	-0.086899996
233	0xbd91e0aa	-0.071229294
234	0x3c7f5798	0.015584849
235	0x3dc6a244	0.096989185
236	0x3df38ee0	0.118924856
237	0x3dbef8ce	0.093247995
238	0x3db35372	0.0875615
239	0x3dae40cf	0.08508455
240	0x3d3fb200	0.046800613
241	0x3ecfa63d	0.40556517
242	0xbd0a0ac2	-0.033701666
243	0xbcd67092	-0.026176725
244	0xbdea9820	-0.11454797
245	0xbe43eed2	-0.19134071
246	0x3cf10651	0.029421957
247	0x3d2a06be	0.041510336
248	0xbe2e5e80	-0.17028236
249	0x3ef977b9	0.48724154
250	0x3d94d6f7	0.07267564
251	0x3c67ad0d	0.01414038
252	0xbe3aa94e	-0.18228647
253	0x3cbfd8a0	0.023418725
254	0xbdebf0cb	-0.11520537
255	0xbd358549	-0.044316564

decoder.deconv_1.bias f4 [16]
0	0x3f0fadc1	0.561245
1	0x3e0a81c3	0.13526063
2	0xbfaa0c21	-1.3284951
3	0x3f4ee461	0.8081723
4	0x3f4b3f4f	0.79393476
5	0xbf8ff76b	-1.1247381
6	0x3f61c099	0.88184506
7	0xbed8d9c9	-0.42353657
8	0x3f5d2de0	0.86398125
9	0x3f593d2b	0.8485896
10	0x3f5dabc8	0.8659024
11	0x3f100d63	0.56270427
12	0x3eeb5778	0.4596517
13	0xbf9c40bc	-1.2207255
14	0xbe60c3b2	-0.21949652
15	0x3ec46393	0.3835722

decoder.deconv_2.weight f4 [16, 8, 2, 2]
0	0xbc462f92	-0.012096303
1	0xbbcbfa46	-0.0062249033
2	0x3ccbef1e	0.024894293
3	0x3e99638d	0.29958764
4	0xbbe51759	-0.0069913086
5	0x3d8ed025	0.06973294
6	0xbc9ae7e8	-0.01890941
7	0x3ddc1773	0.1074666
8	0x3da01d72	0.07818116
9	0x3edf87d7	0.43658325
10	0xbced86c8	-0.028994933
11	0x3de01adb	0.10942622
12	0xbc296852	-0.010339813
13	0x3d9f106a	0.077668026
14	0x3e8091a6	0.2511112
15	0x3e9ff83e	0.3124408
16	0xbc57e4a8	-0.0131770745
17	0x3cc1bf2e	0.023650732
18	0x3ecaf4db	0.39639935
19	0x3d9a944d	0.075478174
20	0x3e4132da	0.18867055
21	0x3e037d6d	0.12840815
22	0xbe15bcc8	-0.14622796
23	0xbe22805a	-0.15869275
24	0xbd878e06	-0.06618886
25	0x3d41932d	0.0472595
26	0x3e1cef0b	0.15325563
27	0x3d987bd6	0.07445495
28	0xbd152923	-0.036416184
29	0xbd7a3964	-0.06108989
30	0xbc4e0e2c	-0.012576621
31	0x3d1617db	0.036643844
32	0x3e701808	0.23446667
33	0xbdb84127	-0.08996802
34	0xbe0c7db1	-0.13719822
35	0xbd23dcb8	-0.040005416
36	0xbd77696d	-0.060403276
37	0x3e8b3a0b	0.2719272
38	0xbee622d6	-0.44948453
39	0xbdd795d7	-0.105266266
40	0x3c14bb10	0.009077802
41	0x3dabe91a	0.0839407
42	0x3dfbd79c	0.122969836
43	0x3e8467bb	0.2586039
44	0xbeb54163	-0.3540145
45	0xbd5ee6ac	-0.054419205
46	0xbe7c0e64	-0.24614865
47	0xbdaab3b3	-0.08335056
48	0x3e2cc872	0.16873339
49	0x3eb9a11e	0.36255735
50	0xbe1e9143	-0.154851
51	0x3c9a558e	0.018839624
52	0x3e01b803	0.12667851
53	0x3e952238	0.2912767
54	0x3e309a2f	0.17246316
55	0x3e19efad	0.15032835
56	0x3a4e35a4	0.00078662694
57	0xbd140976	-0.036141835
58	0x3d3b59c0	0.04573989
59	0xbc1cb16b	-0.009563784
60	0xbd03f939	-0.0322201
61	0xbeab6798	-0.33477473
62	0x3d846463	0.0646446
63	0xbdd4d2df	-0.10391783
64	0x3e3a8786	0.1821576
65	0xbd7bd039	-0.061477873
66	0xbd20f8db	-0.039299827
67	0xbe01d3eb	-0.12678497
68	0x3c8ecbd3	0.017431175
69	0x3dc48a3b	0.09596678
70	0x3e5d0813	0.21585111
71	0xbe0da8e6	-0.13833961
72	0x3edc0d06	0.42978686
73	0x3ef2294f	0.4729714
74	0x3efc049e	0.49222273
75	0x3f0d3ee2	0.55174077
76	0x3e021997	0.12705074
77	0xbc180f66	-0.009281015
78	0x3d090a20	0.03345692
79	0xbc3bef9c	-0.011470702
80	0x3d13f62b	0.036123436
81	0xbe8511fa	-0.25990278
82	0xbe9b1898	-0.302922
83	0xbeb98e45	-0.36241356
84	0x3e6c6a9c	0.23087543
85	0x3d908a7d	0.070576645
86	0x3e4c25f0	0.19936347
87	0x3cc64a3e	0.024205323
88	0xbd4cbff6	-0.049987756
89	0x3e36f081	0.17865182
90	0xbe0538b9	-0.13009919
91	0xbdc89034	-0.097931296
92	0xbe6bae3d	-0.23015685
93	0x3e105c2f	0.14097665
94	0xbdc9b925	-0.09849767
95	0x3de0a776	0.10969441
96	0xbda88bbd	-0.08229778
97	0x3e27996f	0.16367124
98	0xbd2be6ba	-0.041968085
99	0x3e9afd7c	0.30271518
100	0x3e26ab10	0.16276193
101	0xbee6c34f	-0.45070884
102	0xbe6a7410	-0.22895837
103	0xbe1963b4	-0.1497944
104	0x3d4cbffe	0.049987786
105	0x3d75ca86	0.060007595
106	0xbd2f85b2	-0.04285211
107	0xbeb52874	-0.35382426
108	0xbb3b61bf	-0.0028592197
109	0x3e4c6632	0.1996086
110	0xbe02ead9	-0.127849
111	0xbe00f692	-0.12594059
112	0xbc8c1abe	-0.017102595
113	0x3ef28c35	0.47372594
114	0x3e949c2f	0.2902541
115	0x3eb150b5	0.34631887
116	0xbe071bf8	-0.13194263
117	0x3df81274	0.12112895
118	0xbd87fb69	-0.066397496
119	0xbbf6521f	-0.007517114
120	0xbd11e35b	-0.035617214
121	0xbea7d930	-0.32782888
122	0x3d5ad61c	0.053426847
123	0x3e897d2b	0.26853308
124	0x3e8dea80	0.27717972
125	0x3e34d1f3	0.17658214
126	0x3dbf1dde	0.093318686
127	0x3f0309e1	0.5118695
128	0x3e57f467	0.21089326
129	0x3e03cea0	0.1287179
130	0x3eac3e90	0.3364148
131	0xbbb39b88	-0.0054811873
132	0x3ec49577	0.38395283
133	0x3c6cad91	0.014445678
134	0x3e16c165	0.14722212
135	0x3e86b87c	0.26312625
136	0x3d0f3146	0.0349591
137	0xbe0631f7	-0.13104998
138	0xbdbc3157	-0.09189098
139	0x3c94d5f6	0.01816843
140	0x3e882517	0.26590797
141	0x3eae3d7f	0.34031293
142	0x3d9005c9	0.070323534
143	0x3e45e70e	0.19326422
144	0x3d9baa45	0.07600836
145	0x3ec85e8c	0.39134634
146	0x3e072737	0.13198553
147	0x3f0e786c	0.556525
148	0xbe13182a	-0.14364687
149	0x3d8acd54	0.067774445
150	0x3e7788d9	0.24173297
151	0x3ef3dbf2	0.47628742
152	0xbd56b3d8	-0.052417606
153	0xbf5f62f8	-0.8726039
154	0x3e18a396	0.14906153
155	0xbec57dcf	-0.38572547
156	0x3e9d98e9	0.30780724
157	0xbee59539	-0.4484041
158	0x3e927415	0.2860419
159	0xbf177be7	-0.59173435
160	0xbe6e5284	-0.23273665
161	0xbe25c7bd	-0.16189475
162	0xbdc143e9	-0.09436781
163	0xb9e00a8d	-0.0004273247
164	0xbe8b30a2	-0.2718554
165	0xbec0652b	-0.37577185
166	0x3c37ebfb	0.011225696
167	0xbe299732	-0.16561583
168	0x3f0637b9	0.52428776
169	0x3e87c999	0.26520994
170	0x3ee79160	0.452281
171	0x3ebf2195	0.3733031
172	0x3d39544f	0.04524642
173	0xbd45e8ce	-0.048317723
174	0x3dc66919	0.096880145
175	0xbc4a49cb	-0.012346695
176	0x3d28c06f	0.041199144
177	0xbdeefd75	-0.11669437
178	0xba51b2b9	-0.0007999349
179	0xbd20324d	-0.03911047
180	0xbd902f6d	-0.07040296
181	0xbe002a4e	-0.12516138
182	0xbe1d8525	-0.15382822
183	0xbda70b9a	-0.0815651
184	0x3bec1bc6	0.0072054593
185	0x3e38ec9c	0.1805901
186	0xbd0aecc5	-0.033917207
187	0x3e14776f	0.14498685
188	0xbd9e462d	-0.07728229
189	0x3ea6aff5	0.3255612
190	0xbd23a2f5	-0.03995033
191	0x3e4df99c	0.2011475
192	0xbc29a51a	-0.010354305
193	0x3ddd9468	0.10819322
194	0xbda897ce	-0.082320794
195	0xbe749e57	-0.23888527
196	0x3e7ddaaa	0.24790445
197	0xbebe50c5	-0.37170997
198	0xbe0f2535	-0.13979037
199	0xbe891e48	-0.26780915
200	0x3da6253d	0.081125714
201	0xbebb617a	-0.36597806
202	0x3d8f1c51	0.06987823
203	0x3d98bcd7	0.07457893
204	0xbe6e1b73	-0.23252659
205	0xbed95143	-0.4244481
206	0xbcfdca72	-0.030980323
207	0xbe0e1251	-0.13874175
208	0x3e5056ba	0.20345584
209	0x3e1c61ca	0.15271679
210	0xbe267ab9	-0.16257752
211	0x3e0374eb	0.1283757
212	0x3da3f077	0.080048494
213	0x3eba7859	0.36419943
214	0x3dc5d335	0.09659425
215	0x3e6c1319	0.2305416
216	0xbd83fd3f	-0.06444787
217	0xbc67acd2	-0.014140325
218	0xbc6726ac	-0.014108341
219	0xbd0238dd	-0.03179251
220	0x3ead6077	0.3386266
221	0x3e4da1b5	0.20081218
222	0x3da7ec4c	0.08199367
223	0xbda5f93b	-0.081041776
224	0xbe78008f	-0.24218963
225	0x3e255325	0.16144998
226	0xbdccfbe6	-0.10008983
227	0x3e7abf6d	0.24487086
228	0xbe1ef5a9	-0.155234
229	0xbe7f35be	-0.24922845
230	0xbe0d782e	-0.13815376
231	0xbbe005fb	-0.0068366504
232	0x3e8e8a19	0.27839735
233	0x3e616f84	0.22015196
234	0x3e4f4904	0.20242697
235	0x3db484f0	0.08814418
236	0xbc92097e	-0.017826792
237	0xbb53343b	-0.0032227177
238	0x3d41bb37	0.047297683
239	0xbce6b194	-0.028160848
240	0xbd194112	-0.03741557
241	0x3e01747b	0.1264209
242	0x3eb6cecb	0.35704646
243	0x3eae8b84	0.34090817
244	0xbe4bf44c	-0.1991741
245	0xbe0cacae	-0.13737747
246	0xbe3be6dc	-0.18349785
247	0xbd9294f1	-0.071573146
248	0xbe83fb38	-0.25777602
249	0xbdb6e05d	-0.08929513
250	0x3db75c88	0.08953196
251	0x3e62063b	0.22072689
252	0x3dfb23c6	0.122626826
253	0x3bd63cf3	0.0065380274
254	0x3da9df4e	0.08294545
255	0x3da23421	0.07920099

decoder.deconv_2.bias f4 [8]
0	0x3f39e304	0.72612023
1	0x3ebc8a8a	0.36824447
2	0xbfa0594c	-1.2527251
3	0x3f1d32d6	0.61405694
4	0x3f07ffed	0.53124887
5	0x3f317102	0.6931306
6	0xbe2f147d	-0.1709766
7	0x3f401e1d	0.7504595

decoder.deconv_3.weight f4 [8, 1, 2, 2]
0	0xbedf44fd	-0.4360732
1	0xbf25cf62	-0.64769566
2	0xbf392e03	-0.72335833
3	0xbf5d00dd	-0.8632944
4	0xbf244da9	-0.64181
5	0xbe88f185	-0.26746765
6	0xbee4c187	-0.446789
7	0xbdb6db24	-0.089285165
8	0x3ef95772	0.48699528
9	0x3ef8c07d	0.48584357
10	0x3f05f1f8	0.5232234
11	0x3ef3ace7	0.47592852
12	0x3d34b1c5	0.044114847
13	0x3ea7ef96	0.32799977
14	0xbf111f83	-0.5668871
15	0xbe8137c3	-0.25237855
16	0xbe6d2280	-0.23157692
17	0xbf1c1a61	-0.6097775
18	0xbeadb0a3	-0.33923826
19	0xbf38ca26	-0.72183454
20	0xbf593df3	-0.8486015
21	0xbf0e1a96	-0.55509317
22	0xbe8d9c30	-0.27658224
23	0x3d51f408	0.051258117
24	0xbe54cfe4	-0.20782429
25	0x3f1d1352	0.61357605
26	0xbe6f2340	-0.2335329
27	0x3f2977ee	0.66198623
28	0x3b3a79ca	0.002845394
29	0xbf19814e	-0.5996293
30	0xbd7861e3	-0.060640227
31	0xbf2706a4	-0.6524451
